models/multispec_net_led_0427.onnx (onnx, 796385 bytes, 16 tensors)

conv_1_Stride f4 [4]
1.0 1.0 1.0 1.0
00000000: 0000 803f 0000 803f 0000 803f 0000 803f

conv_1_Filter f4 [4]
1.0 1.0 3.0 3.0
00000000: 0000 803f 0000 803f 0000 4040 0000 4040

conv_1_W f4 [16, 1, 3, 3]
-4.895035 1.5069776 0.44624627 -1.4230351 0.54079145 1.4677774 2.2727706 -1.8167728
-1.7594483 -2.6063073 1.2589618 0.5707689 -1.0938922 2.0338764 1.1172078 -0.8613384
-4.127336 1.5273006 -3.0600343 -1.0060211 0.58686787 2.32065 -2.0290775 0.84891796
-0.49585435 -3.2974217 2.898512 1.3429359 -3.653196 -1.1945376 -1.2078412 -0.28009954
0.4204829 -0.4701112 1.6969637 1.7272757 2.4214778 -2.6530263 -0.19109389 -0.5082093
-1.2700101 -1.8665996 0.70040554 -1.7267632 -0.10561904 2.1505516 2.41746 0.013093939
1.6401474 -0.33918607 -3.924201 -1.525361 -2.4274707 -0.7802198 0.91227376 2.4204657
-1.3246276 0.6761351 0.9366265 0.90707666 -4.090142 0.1005515 -1.4341944 1.11827
3.5468478 -2.2989883 -1.5474563 0.14209503 -2.76435 0.69380736 -1.7032232 0.7150262
0.6551068 0.23026894 1.2653757 -2.0800302 0.029245773 0.30358025 0.5040356 0.69290215
-0.41336292 -1.5398222 1.0552021 0.8336702 -4.207883 1.3913406 0.6376351 2.430294
-2.4492185 -0.11979899 -1.1600667 2.7923024 1.3161856 -3.9430437 -0.7754024 1.3938215
-0.32157272 1.0361501 -2.0678792 -0.53567153 -1.5272529 2.2921042 -2.1342 1.8272915
-0.7744279 -1.4552994 -0.46991277 2.194487 3.0173488 -0.3947201 -4.2871385 1.6413138
0.8517738 -0.5140212 -0.453158 -1.011507 -0.15932706 -0.7543142 -0.5209266 -3.4311702
1.7353755 0.085783504 -1.6755679 -0.012912101 -2.138201 3.1282973 -1.273571 1.3384585
2.9275029 1.0061544 0.7661226 -1.0273463 -1.9703546 -2.7946594 -0.4193703 -0.8231248
-0.14794368 -0.6943513 0.6759018 0.32113966 0.21933876 0.5894704 2.687938 -4.120602
00000000: 20a4 9cc0 a4e4 c03f 647a e43e 0426 b6bf
00000010: 4f71 0a3f 21e0 bb3f 1375 1140 038c e8bf
00000020: 9a35 e1bf bdcd 26c0 a925 a13f e91d 123f
00000030: a904 8cbf 082b 0240 aa00 8f3f ac80 5cbf
00000040: 2313 84c0 967e c33f 9ad7 43c0 4dc5 80bf
00000050: f93c 163f 8885 1440 68dc 01c0 b052 593f
00000060: 9fe0 fdbe f508 53c0 3881 3940 53e5 ab3f
00000070: f7cd 69c0 9ce6 98bf 8a9a 9abf 3569 8fbe
00000080: 8949 d73e 6ab2 f0be 1b36 d93f 5f17 dd3f
00000090: 7ef9 1a40 2fcb 29c0 1eae 43be 011a 02bf
000000a0: b18f a2bf bcec eebf c74d 333f 9406 ddbf
000000b0: cc4e d8bd a3a2 0940 aab7 1a40 f687 563c
000000c0: 5af0 d13f cca9 adbe 1c26 7bc0 073f c3bf
000000d0: ae5b 1bc0 7cbc 47bf c68a 693f e9e8 1a40
000000e0: 668d a9bf 3117 2d3f c1c6 6f3f 2d36 683f
000000f0: 71e2 82c0 f2ed cd3d af93 b7bf 7923 8f3f
00000100: 8eff 6240 a022 13c0 0c13 c6bf 5c81 113e
00000110: 1ceb 30c0 5c9d 313f 3803 dabf f50b 373f
00000120: 14b5 273f 9fcb 6b3e d5f7 a13f 371f 05c0
00000130: d594 ef3c df6e 9b3e 7a08 013f 0962 313f
00000140: 4ea4 d3be e518 c5bf dd10 873f 696b 553f
00000150: faa6 86c0 7317 b23f 0e3c 233f f089 1b40
00000160: ffbf 1cc0 2c59 f5bd 117d 94bf 15b5 3240
00000170: c578 a83f d45a 7cc0 c680 46bf be68 b23f
00000180: 2ea5 a4be 91a0 843f 2258 04c0 c521 09bf
00000190: 067d c3bf d6b1 1240 bc96 08c0 b0e4 e93f
000001a0: e840 46bf 4047 babf 6898 f0be 7a72 0c40
000001b0: 3e1c 4140 c118 cabe 3d30 89c0 9216 d23f
000001c0: d90d 5a3f e596 03bf 5304 e8be 1079 81bf
000001d0: a226 23be bc1a 41bf 725b 05bf 4b98 5bc0
000001e0: c920 de3f 43af af3d 0279 d6bf 478d 53bc
000001f0: 49d8 08c0 0636 4840 6004 a3bf 9c52 ab3f
00000200: 355c 3b40 abc9 803f 9c20 443f 1580 83bf
00000210: 9434 fcbf b3db 32c0 b4b7 d6be 4fb8 52bf
00000220: 8c7e 17be 02c1 31bf e607 2d3f 6b6c a43e
00000230: 579a 603e 88e7 163f 2d07 2c40 f9db 83c0

conv_1_B f4 [16]
-0.4562301 -0.29114145 -0.42022344 -0.22383994 -0.60686046 -0.38791856 -0.14032261 -0.28603476
-0.113264985 -0.2980916 -0.27094954 -0.08191994 -0.17174856 -0.47484514 -0.25062653 -0.19262716
00000000: fe96 e9be 7e10 95be 8727 d7be 4c36 65be
00000010: 355b 1bbf 439d c6be bbb0 0fbe 2673 92be
00000020: 79f7 e7bd 769f 98be e6b9 8abe a4c5 a7bd
00000030: dbde 2fbe e71e f3be 1f52 80be 0e40 45be

conv_2_Stride f4 [4]
1.0 1.0 1.0 1.0
00000000: 0000 803f 0000 803f 0000 803f 0000 803f

conv_2_Filter f4 [4]
1.0 1.0 3.0 3.0
00000000: 0000 803f 0000 803f 0000 4040 0000 4040

conv_2_W f4 [32, 16, 3, 3]
-0.58825225 -0.011167898 0.016185073 -0.74199146 0.30313015 -0.71397823 0.55637175 1.16206
-0.29773718 0.2722027 0.13225754 0.04374523 0.0064847055 0.0861665 -0.14440048 -0.058437433
-0.79276437 -0.6409368 0.28841066 0.5271788 -0.5340243 -0.16258302 -0.21855871 -1.1681069
-0.86897504 -0.3051184 -1.2079383 -1.4950963 -0.945569 -0.77695537 0.20367326 0.7622037
0.29381976 -0.3552452 0.20112996 -0.3605232 0.71556604 0.32294768 0.0029005418 0.82327116
-0.35522684 -0.30909196 0.8006216 0.20613098 0.021608276 -0.7641181 0.8945988 -0.19755569
-1.0736643 -0.7359126 -0.47774848 -0.35714412 0.24080236 0.08133198 -0.44548276 -0.40149853
-0.6242134 1.0926673 -0.38169098 0.8124076 -0.4441728 -0.51726484 -0.2606173 -0.43830127
-0.20918822 -0.22192027 -0.34136674 0.31234708 0.19065818 -0.17646012 0.055966493 0.032894216
0.048952457 0.12980822 -0.16482595 -0.90073377 -0.48492184 -0.6323162 0.31640664 0.15837993
-0.17056096 -0.022137497 -0.12969214 -0.49030444 0.48129636 -0.16759947 -0.5730615 -0.16473113
-0.15921006 -0.5466334 -0.066039234 -0.22883189 -0.20839754 0.26343876 -0.12625916 0.49843293
0.070041865 -0.6150033 0.22070482 -0.2272344 1.0728056 -0.071978986 0.39003113 -0.44797248
-0.14739513 -0.3931353 0.48726952 0.28269637 0.1936398 -0.005972353 0.54223955 -0.361398
0.17213172 0.14233106 0.19003437 -0.6672252 -0.02383531 0.047603756 -0.92643416 -0.97460294
-0.13741717 -0.95789564 -1.2069749 -0.3794177 -0.48182833 -0.23462117 0.034129564 -1.1631119
0.54979646 -0.99581295 -1.3278584 -0.13685074 0.20844205 -0.48250636 0.57011193 0.10472648
-0.90194756 0.23083295 0.049736157 0.19948784 0.59281176 -1.120263 -0.06257928 0.13799265
-0.36189637 -0.2551074 -0.62131447 -0.3561396 -0.5699773 -0.93664944 0.10922274 0.007144347
-0.12904015 0.9417549 0.41997772 -0.34897396 -0.36668614 -0.28330624 -0.6264043 0.81302005
0.09648596 -0.491451 -0.6472549 -0.42531136 -0.22573446 0.42869422 -0.5635166 0.13261187
-0.91180694 -0.6925511 -1.5271112 0.34556657 0.4368375 -0.47012433 0.55822414 0.7789012
-0.56499183 -0.2575269 -0.12883148 0.23104344 0.2004871 0.23609746 0.07552505 0.061639853
-0.018483078 0.28351524 -0.18826233 -0.14939071 0.12934671 0.107618436 0.26362246 0.38881314
-0.2776047 -0.35995212 -0.19483726 0.074047305 -0.22778876 0.17555405 0.55401623 -0.46517643
-0.38268524 -0.19818722 -0.6501965 -0.6407006 0.7794441 -0.42560604 -0.31436366 -0.08212707
-0.16630663 -0.30955175 -0.37726927 -0.80034673 -0.7304018 -0.40563494 -0.57248306 -0.40916806
-0.19755232 0.06947429 0.084968336 0.33978346 0.26894957 -0.34654003 0.7576284 0.08166053
0.3056542 -0.32868055 -0.33285743 -1.4747422 -0.43635172 0.22213358 -0.09176194 -0.4937946
0.13719396 -0.5065221 0.126947 -0.17611396 -0.56577253 -0.35214245 -0.1498973 0.077160336
-0.21579266 -0.012697332 -0.16286565 -0.95439047 -0.8458961 -1.0218905 -0.8164555 0.42714807
0.22149886 -0.631638 0.29229987 0.10590956 0.21534817 -0.4063591 0.40296814 -1.064129
00000000: b397 16bf 8ff9 36bc 8f96 843c 27f3 3dbf
00000010: e033 9b3e 47c7 36bf 616e 0e3f 62be 943f
00000020: 0271 98be 275e 8b3e 856e 073e 332e 333d
00000030: a77d d43b 1078 b03d b8dd 13be 175c 6fbd
00000040: 9bf2 4abf 6f14 24bf 90aa 933e 31f5 063f
00000050: d1b5 08bf 2a7c 26be dbcd 5fbe 8784 95bf
00000060: 2675 5ebf 7b38 9cbe b99d 9abf 515f bfbf
00000070: cf10 72bf 8ce6 46bf b98f 503e c81f 433f
00000080: 8b6f 963e b3e2 b5be 03f5 4d3e 7f96 b8be
00000090: 562f 373f 6659 a53e 0417 3e3b e6c1 523f
000000a0: 4be0 b5be 4d41 9ebe 8af5 4c3f 0014 533e
000000b0: d703 b13c 3e9d 43bf 6d04 653f 0a4c 4abe
000000c0: d56d 89bf c564 3cbf 739b f4be 98db b6be
000000d0: e594 763e 6291 a63d 5116 e4be 3791 cdbe
000000e0: 73cc 1fbf 86dc 8b3f 006d c3be f2f9 4f3f
000000f0: 9e6a e3be 786b 04bf a16f 85be 0669 e0be
00000100: 7035 56be 113f 63be 9fc7 aebe f5eb 9f3e
00000110: e63b 433e f6b1 34be 1f3d 653d 16bc 063d
00000120: 5f82 483d 72ec 043e 22c8 28be 7d96 66bf
00000130: ad47 f8be 79df 21bf 0d00 a23e 592e 223e
00000140: 88a7 2ebe b259 b5bc 04ce 04be 2f09 fbbe
00000150: 7a6c f63e 329f 2bbe 29b4 12bf 47af 28be
00000160: f607 23be 2bf0 0bbf 943f 87bd e852 6abe
00000170: 2a66 55be 72e1 863e 154a 01be 9a32 ff3e
00000180: 1c72 8f3d db70 1dbf 7200 623e 22b0 68be
00000190: b251 893f b869 93bd 29b2 c73e a65c e5be
000001a0: c0ee 16be 0849 c9be 647b f93e 94bd 903e
000001b0: 8349 463e bab3 c3bb 36d0 0a3f 2909 b9be
000001c0: 4c43 303e 3cbf 113e 5f98 423e 45cf 2abf
000001d0: 4542 c3bc 28fc 423d ca2a 6dbf 947f 79bf
000001e0: 16b7 0cbe a638 75bf 277e 9abf 0943 c2be
000001f0: 34b2 f6be 8840 70be 71cb 0b3d dae0 94bf
00000200: 76bf 0c3f 99ed 7ebf 44f7 a9bf 9a22 0cbe
00000210: d571 553e 130b f7be dbf2 113f d67a d63d
00000220: 09e6 66bf 795f 6c3e 24b8 4b3d 8a46 4c3e
00000230: 83c2 173f c764 8fbf 9129 80bd f24d 0d3e
00000240: 7b4a b9be 709d 82be 770e 1fbf ee57 b6be
00000250: 08ea 11bf 42c8 6fbf 2cb0 df3d 201b ea3b
00000260: 1a23 04be d916 713f 5207 d73e b7ac b2be
00000270: 49be bbbe 840d 91be 085c 20bf 1522 503f
00000280: 6e9a c53d 779f fbbe 7fb2 25bf 69c2 d9be
00000290: ef26 67be cf7d db3e a042 10bf 68cb 073e
000002a0: 2e6c 69bf 074b 31bf 6178 c3bf 1aee b03e
000002b0: 2aa9 df3e 23b4 f0be c7e7 0e3f 1266 473f
000002c0: 4ea3 10bf 91da 83be 66ec 03be a796 6c3e
000002d0: 7e4c 4d3e 88c3 713e e1ac 9a3d 127a 7c3d
000002e0: d369 97bc e928 913e d7c7 40be e1f9 18be
000002f0: 7773 043e 0e67 dc3d 86f9 863e 8412 c73e
00000300: 3422 8ebe a54b b8be 6b83 47be 1da6 973d
00000310: 7541 69be 71c4 333e 02d4 0d3f 9b2b eebe
00000320: 52ef c3be 97f1 4abe 4773 26bf f404 24bf
00000330: a689 473f 09e9 d9be 46f4 a0be 3d32 a8bd
00000340: 494c 2abe 917d 9ebe 7029 c1be 86e3 4cbf
00000350: 9dfb 3abf 62af cfbe 408e 12bf 7a7e d1be
00000360: 284b 4abe 8948 8e3d e103 ae3d 19f8 ad3e
00000370: c2b3 893e b26d b1be eff3 413f a33d a73d
00000380: b57e 9c3e d148 a8be 4a6c aabe 5ac4 bcbf
00000390: 7e69 dfbe fc76 633e afed bbbd a5d2 fcbe
000003a0: 937c 0c3e 6fab 01bf 65fe 013e 3857 34be
000003b0: 78d6 10bf 044c b4be ae7e 19be 3d06 9e3d
000003c0: c0f8 5cbe 7808 50bc 41c6 26be ef52 74bf
000003d0: a68c 58bf 4fcd 82bf 3a03 51bf 27b3 da3e
000003e0: 99d0 623e 07b3 21bf 54a8 953e 1de7 d83d
000003f0: 3b84 5c3e 4d0e d0be d751 ce3e 6135 88bf

conv_2_B f4 [32]
1.1721483 1.7287215 -0.0058673616 0.5008861 -0.0055381693 -0.8071218 -2.674849 -0.036534723
0.57709885 1.0708615 -1.1835003 -0.6123761 -0.023752766 -0.21032816 0.8244418 -0.028370831
-1.9225895 0.20814885 -0.8480971 -0.28576222 -0.49310744 0.5058251 -0.5679222 -0.860983
-0.7562376 0.40994048 -0.0017481534 -1.9498086 0.24576153 0.83497447 0.39734998 -0.00902581
00000000: f508 963f bf46 dd3f ff42 c0bb 123a 003f
00000010: 8879 b5bb 899f 4ebf ba30 2bc0 6fa5 15bd
00000020: c0bc 133f fd11 893f f07c 97bf aec4 1cbf
00000030: 2995 c2bc 4460 57be 9e0e 533f f269 e8bc
00000040: 6a17 f6bf f924 553e e41c 59bf 6d4f 92be
00000050: 9478 fcbe c17d 013f 5963 11bf 6269 5cbf
00000060: ca98 41bf b8e3 d13e 4b22 e5ba 5493 f9bf
00000070: e9a8 7b3e e3c0 553f 7571 cb3e fee0 13bc

conv_3_Stride f4 [4]
1.0 1.0 1.0 1.0
00000000: 0000 803f 0000 803f 0000 803f 0000 803f

conv_3_Filter f4 [4]
1.0 1.0 3.0 3.0
00000000: 0000 803f 0000 803f 0000 4040 0000 4040

conv_3_W f4 [64, 32, 3, 3]
0.13322374 0.25424084 -0.29229343 0.2906563 -0.20853283 -0.24099658 -0.15665036 0.19394314
-0.24834369 0.12771271 -0.18920699 -0.36738676 0.24992606 -0.01616531 -0.07943715 0.13102297
0.27000603 0.07237264 1.61669e-40 1.96112e-40 1.32246e-40 1.49008e-40 8.4682e-41 -1.319e-40
-1.417e-40 -1.85235e-40 -3.1298e-41 0.2693546 0.5141261 0.36491632 0.22607458 0.15659103
-0.3009626 -0.04493433 0.32013303 0.13326739 7.473e-42 -1.10701e-40 -1.55e-40 1.5382e-40
-4.1351e-41 -9.5972e-41 -1.30706e-40 1.17639e-40 -7.3676e-41 0.059506923 -0.3292214 0.077579655
-0.29037568 -0.27091813 0.112808555 -0.18873961 -0.022134686 -0.15684964 0.04716114 -0.37169325
-0.23689808 -0.05077888 -0.27736196 -0.5305949 -0.07203027 0.14421338 -0.14881572 -1.62968e-40
1.14472e-40 5.4411e-41 -1.1984e-41 -4.5633e-41 -7.7375e-41 1.85093e-40 -1.03246e-40 5.1614e-41
-0.31401393 0.0057555367 -0.09972404 -0.25478807 -0.0050397497 0.0017277213 0.005178013 -0.08619292
-0.09858584 -0.16596161 0.123824514 0.29300168 -0.2767803 -0.2864708 -0.06921191 -0.07564934
-0.09134463 0.31328505 -0.4133183 -0.15005377 -0.1339133 -0.118979365 0.016784947 -0.13223904
-0.3919306 -0.09739424 -0.12004276 0.12336059 -0.31749636 -0.08497585 -0.1516244 -0.16344741
0.12742692 -0.12649009 -0.41863328 -0.16940413 -0.19330801 -0.57589966 -0.6168006 -0.09202235
-0.12897526 -0.317907 -0.43520096 -0.68307275 -0.9046713 -0.23602647 0.073892646 -0.048669443
-0.407929 -0.5414637 -0.2693824 -0.3988838 -0.5607842 -0.50525457 0.015252512 -0.1137024
-0.28372025 0.14927772 0.121892005 -0.03909988 0.42964104 0.24048492 0.19456938 0.21375066
0.18801735 0.2955354 0.2203792 0.067233615 0.05422532 0.15980282 0.21833755 0.060623202
-0.1602628 0.0025192634 -0.19442144 -0.35960925 -0.1901907 -0.4039056 -0.41978288 -0.29128456
-0.4670882 -0.54114956 -0.6205639 -0.5026898 -0.36347747 -0.3662587 -0.35797027 -0.1859307
0.007888542 -0.28931636 -0.38900825 -0.38576993 0.14529344 -0.16026028 -0.33043906 0.103564434
-0.0748218 -0.2800655 0.12241296 -0.082196675 0.38610798 -0.08461982 -0.16101061 0.1277334
-0.07777471 -0.042402375 0.23861131 0.26179886 -0.40107563 -0.31918207 -0.6176043 -0.25243542
-0.0010625989 -0.36228526 -0.29344046 -0.052519824 -0.275326 -0.15584119 -0.11177152 0.27774355
-0.31964645 -0.1305461 0.17536521 -0.072739646 0.51299566 0.20736009 0.47029272 -0.2703209
0.23598605 0.37630114 -0.21508193 0.118499145 -0.2053964 -0.17142147 -0.22670496 -0.17503716
-0.32693937 -0.23889685 -0.32263777 -0.11002064 -0.13678743 -0.2176923 -0.15390341 -0.1153804
-0.10824992 -0.26413488 0.20974892 -0.19737215 0.07732402 0.2966044 -0.46121284 -0.15873772
0.24684733 0.13925967 0.3636042 0.029456804 -0.26714724 -0.15047076 -0.08121565 0.025696851
0.13947348 -0.2513776 -0.2584263 -0.26647678 -0.033775184 -0.059927978 -0.13060658 -0.07726171
0.008747165 -0.0029330514 0.033004913 0.32925016 -0.18773814 -0.08544991 0.6002323 0.26547325
-0.09675276 -0.048223395 0.02356796 0.25289947 -0.09755673 0.17131485 0.18419926 -0.12939917
00000000: ce6b 083e db2b 823e 7ca7 95be e7d0 943e
00000010: a189 55be cfc7 76be f468 20be 0899 463e
00000020: cf4d 7ebe 1fc7 023e 7abf 41be 1e1a bcbe
00000030: 9eec 7f3e 1d6d 84bc f2af a2bd e32a 063e
00000040: 3b3e 8a3e 1b38 943d abc2 0100 ae22 0200
00000050: a670 0100 609f 0100 0fec 0000 af6f 0180
00000060: 008b 0180 5c04 0280 3f57 0080 d9e8 893e
00000070: c59d 033f 50d6 ba3e 1880 673e 6659 203e
00000080: c517 9abe 0f0d 38bd 7ae8 a33e 3f77 083e
00000090: d514 0000 9734 0180 14b0 0180 caac 0100
000000a0: 4573 0080 880b 0180 5b6c 0180 ee47 0100
000000b0: 61cd 0080 88bd 733d b58f a8be 15e2 9e3d
000000c0: 1fac 94be c8b5 8abe 2c08 e73d f544 41be
000000d0: cd53 b5bc 319d 20be 0a2c 413d 944e bebe
000000e0: 6995 72be 84fd 4fbd 6302 8ebe 11d5 07bf
000000f0: 9b84 93bd acac 133e 2663 18be 4ac6 0180
00000100: 1a3f 0100 ad97 0000 6821 0080 357f 0080
00000110: b1d7 0080 f703 0200 cf1f 0180 e18f 0000
00000120: 6fc6 a0be f198 bc3b 1e3c ccbd 9573 82be
00000130: 7c24 a5bb b574 e23a 52ac a93b ea85 b0bd
00000140: 5fe7 c9bd d7f1 29be b597 fd3d 5104 963e
00000150: 26b6 8dbe 4dac 92be f9be 8dbd 0bee 9abd
00000160: e512 bbbd e666 a03e 759e d3be b2a7 19be
00000170: 9120 09be 74ab f3bd 9680 893c ac69 07be
00000180: 21ab c8be a276 c7bd fbd8 f5bd 7aa4 fc3d
00000190: e28e a2be d207 aebd 6d43 1bbe c25e 27be
000001a0: 347c 023e 9e86 01be 1a57 d6be 4778 2dbe
000001b0: 89f2 45be 296e 13bf a5e6 1dbf 3776 bcbd
000001c0: 1712 04be b5c4 a2be a9d2 debe dbdd 2ebf
000001d0: 8a98 67bf ecb0 71be 0755 973d 9c59 47bd
000001e0: 12dc d0be 5d9d 0abf 7dec 89be 7f3a ccbe
000001f0: 8e8f 0fbf 5d58 01bf ace5 793c cedc e8bd
00000200: c843 91be 42dc 183e 84a2 f93d 3227 20bd
00000210: e9f9 db3e ae41 763e 323d 473e 74e1 5a3e
00000220: 9f87 403e 6a50 973e 16ab 613e c7b1 893d
00000230: 5f1b 5e3d 5aa3 233e e193 5f3e 0950 783d
00000240: ee1b 24be 3a1a 253b 6a16 47be b41e b8be
00000250: 5ac1 42be b7cc cebe c8ed d6be 4023 95be
00000260: 2f26 efbe c788 0abf 47dd 1ebf 47b0 00bf
00000270: b819 babe 4386 bbbe e147 b7be 9e64 3ebe
00000280: f13e 013c 4621 94be 172c c7be a383 c5be
00000290: cec7 143e 451b 24be 4f2f a9be 9719 d43d
000002a0: 2c3c 99bd bf64 8fbe a5b3 fa3d bb56 a8bd
000002b0: f2af c53e 284d adbd f7df 24be 8bcc 023e
000002c0: 5948 9fbd 1dae 2dbd 8656 743e 800a 863e
000002d0: c959 cdbe d56b a3be 511b 1ebf 373f 81be
000002e0: e746 8bba 747d b9be d43d 96be 071f 57bd
000002f0: 88f7 8cbe d594 1fbe 77e8 e4bd 6734 8e3e
00000300: b3a8 a3be e0ad 05be f092 333e 86f8 94bd
00000310: af53 033f 3456 543e 35ca f03e 8067 8abe
00000320: 54a6 713e 8baa c03e 703e 5cbe aeaf f23d
00000330: 6f53 52be 1c89 2fbe 5825 68be f13c 33be
00000340: 9964 a7be 60a1 74be c730 a5be 8052 e1bd
00000350: 0112 0cbe bbea 5ebe db98 1dbe 8f4c ecbd
00000360: 22b2 ddbd b03c 87be 6cc8 563e ed1b 4abe
00000370: 0e5c 9e3d 88dc 973e 1724 ecbe 248c 22be
00000380: 8cc5 7c3e 169a 0e3e 542a ba3e 654f f13c
00000390: 86c7 88be 0215 1abe 6454 a6bd 3482 d23c
000003a0: 23d2 0e3e 91b4 80be 7450 84be a56f 88be
000003b0: d957 0abd 0a77 75bd bbbd 05be 633b 9ebd
000003c0: 4550 0f3c 7038 40bb 2930 073d 7a93 a83e
000003d0: 6d3e 40be 5d00 afbd d3a8 193f 1cec 873e
000003e0: 5026 c6bd e585 45bd 9811 c13c 0a7c 813e
000003f0: d3cb c7bd 296d 2f3e bb9e 3c3e 3781 04be

conv_3_B f4 [64]
0.17942868 -1.0315827 -0.14179547 0.6501566 -0.08771332 0.4251696 -0.8709435 -0.38761407
-0.26328874 -0.051561095 -0.02045425 -0.6143217 0.2873823 0.36807948 -0.30284575 0.37964574
0.2904654 -0.008989272 -0.49695754 -0.20561993 -0.6936941 -0.01603936 -1.7472259 -1.3778528
-0.2409641 -0.18712217 -0.053122237 -2.7737718 -0.69329476 0.15516166 -0.010331466 -2.220876
-0.22481434 0.2205842 -0.75113213 -0.6091276 0.66982925 -0.2282745 0.9134064 -0.007941021
-2.3874168 -1.5602151 -0.00810172 -0.104456395 -1.544669 -0.0939014 0.80517256 0.13176711
0.0050809467 -0.012134241 -1.0310533 -0.42395797 -0.54513764 0.52092844 -0.035030678 -0.017107313
0.007841432 -0.05826972 0.5330961 0.4146803 0.05232925 0.4753444 0.1699873 0.46190172
00000000: 27bc 373e e70a 84bf d532 11be aa70 263f
00000010: 0ba3 b3bd d4af d93e 27f6 5ebf 5a75 c6be
00000020: c8cd 86be ba31 53bd ac8f a7bc 3044 1dbf
00000030: c623 933e ea74 bc3e 990e 9bbe ed60 c23e
00000040: e2b7 943e bd47 13bc 3871 febe 088e 52be
00000050: f095 31bf fa64 83bc 19a5 dfbf 7b5d b0bf
00000060: 4bbf 76be f49c 3fbe b496 59bd 7a85 31c0
00000070: c47b 31bf b3e2 1e3e 4f45 29bc d522 0ec0
00000080: bb35 66be d3e0 613e 324a 40bf c9ef 1bbf
00000090: ee79 2b3f cac0 69be 00d5 693f 0e1b 02bc
000000a0: 70cb 18c0 21b5 c7bf 14bd 04bc 3ced d5bd
000000b0: b7b7 c5bf 614f c0bd ca1f 4e3f f5ed 063e
000000c0: 127e a63b b2ce 46bc 8ef9 83bf 0511 d9be
000000d0: 248e 0bbf 915b 053f 547c 0fbd a324 8cbc
000000e0: 5979 003c 3bac 6ebd fc78 083f fa50 d43e
000000f0: 3257 563d 5760 f33e 2711 2e3e 627e ec3e

fc_1_MatMul_W f4 [576, 256]
-0.030933373 0.1377804 0.1997532 0.074316636 1.27664e-40 -0.10490008 -4.897e-41 6.0661e-41
-1.1743e-41 4.3692e-41 1.51364e-40 -1.42586e-40 -0.030177776 -5.3219e-41 -0.07040178 -0.039141763
0.013965341 -1.2163e-40 8.3e-43 -8.585e-41 0.027572738 -0.07160939 4.0814e-41 -0.10776627
0.23853058 -7.0526e-41 -2.4559e-41 -7.65e-43 1.59814e-40 1.82508e-40 1.18527e-40 8.4098e-41
-0.16115525 1.37696e-40 0.20650682 -1.42578e-40 5.926e-41 -0.017544702 1.18616e-40 -0.14783642
0.07055096 -0.05776476 0.1322737 0.14111957 2.5306e-41 -0.2255858 9.596e-41 1.42669e-40
6.68e-41 -0.20833169 1.958e-41 0.19879426 1.5025e-40 -1.31782e-40 0.06915693 -1.0745e-40
0.27603218 -0.18897884 0.012761962 0.19694932 -0.13595602 -1.91626e-40 -9.8654e-41 -1.19043e-40
1.2018e-41 4.3196e-41 -0.13003732 -9.8042e-41 -3.9693e-41 1.47369e-40 4.9989e-41 4.53e-41
0.28919545 0.029338636 -0.046474293 -1.63502e-40 1.43618e-40 0.13273728 9.703e-41 -0.028295299
-2.2695e-41 -1.163e-40 3.9913e-41 0.22142865 -0.023524007 -0.3727855 -4.6589e-41 -2.4119e-41
-0.003115951 1.2503e-40 1.7194e-40 -5.3027e-41 0.019140383 -3.7866e-41 -0.22534041 -1.07264e-40
0.14753182 9.7882e-41 -0.052742597 -0.1290905 1.24787e-40 -0.18133622 9.6589e-41 -1.64106e-40
0.12953667 -0.008489388 1.07697e-40 0.23998609 -1.8206e-40 0.002026189 -1.34125e-40 0.1899222
-6.7126e-41 -3.513e-42 -6.278e-41 0.0192646 0.04553635 0.07053087 -2.7161e-41 -0.026265841
-6.042e-41 0.13853924 -1.9461e-40 1.13071e-40 1.4644e-41 0.090532854 0.20664401 1.80721e-40
0.15329382 -4.183e-41 0.040762044 -0.08104882 -0.2254229 -0.015189838 -1.29411e-40 -0.10997176
0.0062417225 -0.00786933 0.016596567 0.36287084 7.496e-42 9.3444e-41 6.8009e-41 -1.06444e-40
-0.22629902 1.27664e-40 -0.24661072 -1.45467e-40 0.0552563 -8.32e-41 -3.66e-41 1.40496e-40
1.81088e-40 -7.0824e-41 1.35283e-40 0.040776893 0.29455304 1.0333e-40 -0.1449063 -0.1712539
-5.6343e-41 1.6224e-41 -0.28612375 0.11024723 -1.87628e-40 -1.13266e-40 0.016484957 -2.711e-41
8.7018e-41 0.041602023 0.014814933 -0.19390959 -5.237e-41 -1.44456e-40 -7.2188e-41 -1.36328e-40
0.09480111 3.2376e-41 0.04610784 1.36062e-40 0.16271329 -7.7965e-41 -7.9713e-41 -1.79089e-40
-0.13801648 0.11440629 0.041513596 1.7002e-41 0.0035801334 -5.1586e-41 1.67712e-40 0.15061502
-1.0733e-40 7.316e-41 -1.46566e-40 0.15322469 1.89114e-40 0.07739484 -0.00023899796 0.06626649
1.94541e-40 0.12721445 -0.17937423 1.14143e-40 1.17548e-40 0.032503914 -0.025271302 -1.61746e-40
-0.004506667 6.1717e-41 -1.74222e-40 -0.11881531 0.06461812 0.14930786 1.8293e-41 -1.4764e-41
0.007398786 1.4201e-41 -0.18886332 -1.19392e-40 9.7252e-41 -0.06725557 -1.45093e-40 -1.64875e-40
7.7055e-41 0.13874076 0.032951795 0.264251 -1.96307e-40 -8.606e-41 -0.048138555 -1.20764e-40
-0.122909084 -1.66191e-40 0.086744495 -1.4949e-40 1.47759e-40 0.09152368 -1.42117e-40 0.004732323
-3.2282e-41 0.18178166 8.9198e-41 -0.009160437 8.8002e-41 0.022155942 7.6525e-41 -0.024489887
-0.0057892036 0.055174377 9.5264e-41 0.072868645 0.121591195 1.21526e-40 -1.40849e-40 0.22524768
00000000: fc67 fdbc 4e16 0d3e 1a8c 4c3e 5233 983d
00000010: e063 0100 dad5 d6bd 8288 0080 19a9 0000
00000020: bc20 0080 cc79 0000 f1a5 0100 798d 0180
00000030: 6237 f7bc 5a94 0080 cf2e 90bd 1d53 20bd
00000040: e3ce 643c 0e53 0180 5002 0000 51ef 0080
00000050: 39e0 e13c f2a7 92bd c671 0000 90b4 dcbd
00000060: 5c41 743e 99c4 0080 7644 0080 2202 0080
00000070: 7fbd 0100 c2fc 0100 684a 0100 6eea 0000
00000080: e205 25be d77f 0100 8676 533e 738d 0180
00000090: 31a5 0000 e8b9 8fbc a74a 0100 6e62 17be
000000a0: 067d 903d be9a 6cbd c272 073e a681 103e
000000b0: 8b46 0000 f7ff 66be 7f0b 0100 b48d 0100
000000c0: 36ba 0000 e754 55be 9536 0000 b990 4b3e
000000d0: d6a2 0100 5b6f 0180 26a2 8d3d 872b 0180
000000e0: 1754 8d3e ab83 41be 8c17 513c 15ad 493e
000000f0: 0e38 0bbe 2d16 0280 0213 0180 d84b 0180
00000100: 8021 0000 6a78 0000 8128 05be 4d11 0180
00000110: a66e 0080 ce9a 0100 598b 0000 477e 0000
00000120: 6d11 943e 9457 f03c d45b 3ebd c7c7 0180
00000130: 5990 0100 48ec 073e 7b0e 0100 8bcb e7bc
00000140: 443f 0080 3244 0180 436f 0000 31be 623e
00000150: 6bb5 c0bc bedd bebe df81 0080 3c43 0080
00000160: fc34 4cbb 885c 0100 4cdf 0100 d193 0080
00000170: 4bcc 9c3c 8e69 0080 a3bf 66be 022b 0180
00000180: 9512 173e db10 0100 9f08 58bd 4d30 04be
00000190: db5b 0100 34b0 39be 400d 0100 76c9 0180
000001a0: 43a5 043e 1317 0bbc 372c 0100 eabe 753e
000001b0: 82fb 0180 cfc9 043b e375 0180 f77a 423e
000001c0: 1fbb 0080 cb09 0080 01af 0080 cbd0 9d3c
000001d0: 5384 3a3d 7d72 903d b74b 0080 762b d7bc
000001e0: 6da8 0080 3bdd 0d3e 7e1e 0280 323b 0100
000001f0: d228 0000 4a69 b93d 7d9a 533e c7f7 0100
00000200: 0ef9 1c3e 9b74 0080 1af6 263d ecfc a5bd
00000210: 43d5 66be ccde 78bc bf68 0180 e038 e1bd
00000220: 5d87 cc3b 5dee 00bc 86f5 873c 35ca b93e
00000230: e514 0000 7c04 0100 95bd 0000 b928 0180
00000240: eeba 67be e063 0100 8587 7cbe 8195 0180
00000250: 6e54 623d eee7 0080 0766 0080 a587 0100
00000260: cdf8 0100 6ec5 0080 1d79 0100 ac05 273d
00000270: a8cf 963e 0b20 0100 5162 14be 2f5d 2fbe
00000280: 109d 0080 3a2d 0000 d07e 92be 4dc9 e13d
00000290: 080b 0280 bd3b 0180 760b 873c 924b 0080
000002a0: 92f2 0000 e266 2a3d 55ba 723c 3c90 46be
000002b0: fc91 0080 af92 0180 3bc9 0080 077c 0180
000002c0: 1627 c23d 405a 0000 93db 3c3d 497b 0100
000002d0: 509e 263e 56d9 0080 35de 0080 3af3 0180
000002e0: 3154 0dbe d84d ea3d 290a 2a3d 652f 0000
000002f0: aca0 6a3b cd8f 0080 83d3 0100 d33a 1a3e
00000300: 312b 0180 f1cb 0000 9198 0180 efe6 1c3e
00000310: 2c0f 0200 3081 9e3d 879b 7ab9 bab6 873d
00000320: 4d1e 0200 8144 023e e1ad 37be 2f3e 0100
00000330: ad47 0100 d322 053d c305 cfbc e2c2 0180
00000340: aaac 93bb 0bac 0000 a9e5 0180 7155 f3bd
00000350: 8156 843d 29e4 183e fe32 0000 2829 0080
00000360: 8471 f23b 9627 0000 6365 41be d14c 0180
00000370: 190f 0100 4abd 89bd 7694 0180 9bcb 0180
00000380: ccd6 0000 0f12 0e3e 76f8 063d e84b 873e
00000390: 3923 0280 e6ef 0080 ef2c 45bd a450 0180
000003a0: c2b7 fbbd 46cf 0180 19a7 b13d b8a0 0180
000003b0: e49b 0100 c470 bb3d 2a8c 0180 9a11 9b3b
000003c0: fd59 0080 f924 3a3e a6f8 0000 a815 16bc
000003d0: 50f5 0000 6180 b53c 52d5 0000 049f c8bc
000003e0: 5cb3 bdbb 87fe 613d 8f09 0100 283c 953d
000003f0: ce04 f93d c452 0100 a188 0180 54a7 663e

fc_1_Add_B f4 [256]
-1.797259 -0.12830976 -1.2733144 0.44063705 -0.0014364504 -0.8775438 -0.024674952 -0.013906588
-0.009174438 -0.012790491 -0.008576903 -0.014910539 -0.6595081 -0.014269854 0.34614307 -0.8130479
-1.2920964 -0.0143988235 -0.010297312 -0.0057216496 -3.8029718 1.056551 -0.034679532 0.3598575
-1.0165715 -0.026448973 -0.03853734 -0.0059764995 -0.00885441 -0.011351076 -0.0047044377 -0.005737814
2.450012 -0.011413828 -2.70429 -0.006438363 -0.01853518 -0.9343261 -0.027318213 0.40069368
-2.73559 0.5595944 -0.5042348 0.6909926 -0.00845263 1.5127805 -0.0155407805 -0.035206676
-0.017507618 -0.43595165 -0.012975285 0.10561887 -0.017022863 -0.007253243 -0.104939185 -0.007671982
-2.4416366 -1.3769753 -1.4634385 -1.0083538 0.75839305 -0.013857252 -0.00969602 -0.06735325
-0.031796984 -0.006886093 -0.08959515 -0.0151336035 -0.024147024 -0.0057784743 -0.00807618 -0.027051438
-3.1875467 -1.6315405 -0.9613364 -0.011246842 -0.0049550803 -0.46758857 -0.022946306 -1.3476143
-0.0041452697 -0.048885275 -0.04849228 -0.99873674 -0.07453869 0.6659779 -0.0052189417 -0.013681797
-1.6554339 -0.01764059 -0.007753797 -0.010427889 0.36390832 -0.044538636 -0.62335247 -0.008866979
-0.19089887 -0.034737676 -1.1624846 0.70357203 -0.0067420476 1.2416013 -0.012378663 -0.0142865935
-1.1188858 -1.0153016 -0.010952015 -0.80206716 -0.01216463 0.32703623 -0.002924018 -2.444468
-0.011372443 -0.004868651 -0.014384304 1.2312684 -0.43058318 -0.3426551 -0.03513705 -0.5076214
-0.009347657 -1.9299339 -0.010416062 -0.003958412 -0.011692082 -0.0016824106 -1.4975641 -0.010841114
-0.7185939 -0.012934274 -0.23165773 1.1855525 -0.045392737 -0.508382 -0.009626099 -0.9707548
-2.156547 -1.6002614 -2.7869895 1.0400432 -0.017312625 -0.010739581 -0.008270937 -0.008680283
0.5639657 -0.009139698 -0.29038793 -0.009019043 -1.9167293 -0.006993645 -0.028094012 -0.0028521987
-0.012732333 -0.0063777966 -0.0051869215 0.19702461 -1.2508187 -0.0063612014 -1.8098477 -4.997951
-0.03454872 -0.0062640784 -0.7479581 1.3457811 -0.0041310126 -0.0075773215 -1.3394694 -0.0060418546
-0.0063977963 -1.5778337 0.007365063 1.1155267 -0.013733775 -0.006706531 -0.019651555 -0.005558091
-1.0632952 -0.010415849 -0.2756222 -0.009033848 -1.7769532 -0.009690208 -0.009924843 -0.01953002
0.18740709 0.15645629 -0.95961577 -0.02465673 -1.3326477 -0.021025963 -0.005858959 -2.134902
-0.019871362 -0.007886168 -0.010408477 0.49322197 -0.014542704 -2.1632051 -0.9952411 -1.4188609
-0.0039996933 -0.7342547 -0.5419197 -0.0073549896 -0.0026602664 0.15761852 -0.4340925 -0.0022633332
-1.2919161 -0.028603945 -0.007430167 0.26681238 0.529439 -0.23682639 -0.009595773 -0.046152916
-1.0853462 -0.019507663 -1.4532411 -0.03485009 -0.0019532663 -0.51034015 -0.012138456 -0.0052294745
-0.028904712 -1.4731097 1.0434176 -0.76316386 -0.007171057 -0.024414323 -0.49642324 -0.026494432
1.10519 -0.052835118 -1.7106274 -0.01446632 -0.015851147 -0.10595176 -0.011523476 0.68224186
-0.01971804 -0.8827447 -0.011443804 1.3399737 -0.010726637 -1.3954904 -0.013737706 0.16445044
-0.5061998 0.5203124 -0.003189097 -3.535062 -1.7437955 -0.00776468 -0.023967102 1.6564815
00000000: 950c e6bf a263 03be f7fb a2bf 2e9b e13e
00000010: 4747 bcba b6a6 60bf 2023 cabc 75d8 63bc
00000020: 6250 16bc 358f 51bc 2386 0cbc 554b 74bc
00000030: 86d5 28bf 1bcc 69bc aa39 b13e e823 50bf
00000040: 6a63 a5bf 0be9 6bbc 0fb6 28bc ad7c bbbb
00000050: e463 73c0 103d 873f 200c 0ebd 3e3f b83e
00000060: 041f 82bf 84ab d8bc 54d9 1dbd 83d6 c3bb
00000070: 1612 11bc ddf9 39bc af27 9abb 4604 bcbb
00000080: ffcc 1c40 1001 3bbc 1613 2dc0 e7f8 d2bb
00000090: 17d7 97bc ff2f 6fbf 72ca dfbc b927 cd3e
000000a0: e813 2fc0 9441 0f3f 8815 01bf e4e4 303f
000000b0: e67c 0abc cba2 c13f c29e 7ebc e034 10bd
000000c0: 236c 8fbc 0e35 dfbe 4a96 54bc b54e d83d
000000d0: 8873 8bbc 9dac edbb 5bea d6bd 4065 fbbb
000000e0: c643 1cc0 ba40 b0bf f451 bbbf bd11 81bf
000000f0: 0c26 423f 8709 63bc 0edc 1ebc 80f0 89bd
00000100: 8e3d 02bd bca4 e1bb a97d b7bd eff2 77bc
00000110: fbcf c5bc 5b59 bdbb f451 04bc fa9a ddbc
00000120: c400 4cc0 52d6 d0bf 241a 76bf ad44 38bc
00000130: 3a5e a2bb c567 efbe e4f9 bbbc a07e acbf
00000140: 0bd5 87bb ed3b 48bd d79f 46bd 36ad 7fbf
00000150: bea7 98bd 877d 2a3f a803 abbb 9e29 60bc
00000160: 42e5 d3bf 0083 90bc 9013 febb bdd9 2abc
00000170: 3152 ba3e 256e 36bd 0794 1fbf ce46 11bc
00000180: fe7a 43be 1849 0ebd 4ccc 94bf 4c1d 343f
00000190: 65ec dcbb cbec 9e3f e0cf 4abc 5112 6abc
000001a0: a637 8fbf 67f5 81bf 1570 33bc 4654 4dbf
000001b0: 284e 47bc 4b71 a73e e2a0 3fbb 2a72 1cc0
000001c0: 7c53 3abc 3489 9fbb 25ac 6bbc 349a 9d3f
000001d0: 6675 dcbe 7d70 afbe deeb 0fbd 7af3 01bf
000001e0: ea26 19bc 1308 f7bf 21a8 2abc 91b5 81bb
000001f0: 2590 3fbc 5584 dcba 2eb0 bfbf ee9e 31bc
00000200: c5f5 37bf 47ea 53bc af37 6dbe 2fc0 973f
00000210: bced 39bd 5325 02bf c9b6 1dbc 6383 78bf
00000220: de04 0ac0 5ed5 ccbf 095e 32c0 2320 853f
00000230: 35d3 8dbc 11f5 2fbc d382 07bc bf37 0ebc
00000240: 0e60 103f acbe 15bc baad 94be 9cc4 13bc
00000250: 6357 f5bf f22a e5bb 6a25 e6bc f4eb 3abb
00000260: 469b 50bc d6fc d0bb 0df7 a9bb d2c0 493e
00000270: d41a a0bf a071 d0bb 17a9 e7bf 37ef 9fc0
00000280: f582 0dbd e642 cdbb 2f7a 3fbf 8e42 ac3f
00000290: 725d 87bb 2e4b f8bb bc73 abbf c0fa c5bb
000002a0: 9ba4 d1bb 74f6 c9bf a056 f13b 94c9 8e3f
000002b0: a103 61bc 76c2 dbbb 4cfc a0bc a620 b6bb
000002c0: 0f1a 88bf 3da7 2abc 5a1e 8dbe b402 14bc
000002d0: 3473 e3bf aec3 1ebc cf9b 22bc 6cfd 9fbc
000002e0: a5e7 3f3e 1436 203e 61a9 75bf e9fc c9bc
000002f0: 3394 aabf a43e acbc 83fc bfbb 3ca2 08c0
00000300: 44c9 a2bc fc34 01bc 5188 2abc 9787 fc3e
00000310: 8644 6ebc f471 0ac0 1fc8 7ebf 3c9d b5bf
00000320: dc0f 83bb 1ef8 3bbf 40bb 0abf 2002 f1bb
00000330: dd57 2ebb c066 213e 5f41 debe 6e54 14bb
00000340: 825d a5bf d252 eabc c278 f3bb a29b 883e
00000350: 5089 073f 9e82 72be 9737 1dbc d70a 3dbd
00000360: a0ec 8abf 89ce 9fbc ce03 babf f8be 0ebd
00000370: 5f02 00bb a7a5 02bf 60e0 46bc 035c abbb
00000380: 93c9 ecbc dc8e bcbf b58e 853f b55e 43bf
00000390: 30fb eabb 8c00 c8bc 302b febe da0a d9bc
000003a0: de76 8d3f a369 58bd d7f5 dabf 2504 6dbc
000003b0: 44da 81bc 3dfd d8bd f6cc 3cbc 67a7 2e3f
000003c0: ba87 a1bc 8ffb 61bf cb7e 3bbc 4284 ab3f
000003d0: c7be 2fbc 6e9f b2bf 1d14 61bc b265 283e
000003e0: 4f96 01bf 3233 053f 2b00 51bb 753e 62c0
000003f0: b134 dfbf db6e febb a856 c4bc 9607 d43f

fc_2_MatMul_W f4 [256, 101]
-0.33559287 0.062118556 0.2122001 -0.10005458 0.20140406 -0.19853336 -0.22829366 0.08391716
-0.3691645 -0.42594457 -0.466558 -0.033446055 0.08647819 0.15637106 -0.5502288 0.20331487
0.2726477 0.35026023 0.3495693 -0.09148298 0.355372 -0.3908714 0.3226151 0.25142282
0.30632117 0.2302462 0.10738288 0.20870684 -0.0522184 -0.16953093 -0.28899458 -0.4807349
-0.69755906 -0.57236725 -0.46791 -0.4819239 0.19272245 -0.3789449 0.108204916 -0.27652174
-0.26527056 -0.22404939 -0.26005763 -0.29399228 0.12121915 -0.26225516 -0.25010806 -0.22077934
-0.32347515 0.19723456 -0.12775595 0.18515739 -0.07829521 -0.03758268 -0.18643613 0.10406027
0.08219753 0.14220582 0.09321948 0.3301667 0.10125559 0.16937214 0.14319994 0.22877845
-0.20432837 0.14967589 0.06738309 0.07472715 0.06561311 -0.15419948 0.03507965 -0.07361708
0.1177073 -0.1605284 0.16228794 -0.16672522 -0.39343938 -0.3556299 -0.46199495 -0.47576275
-0.5017313 -0.09192543 -0.6753601 -0.2666273 -0.710025 -0.040148895 -0.37535563 0.026901884
0.095849544 0.12405357 0.13224258 0.19455695 0.20851164 0.23653167 0.2529562 0.2359908
0.041065045 0.24371108 -0.100184165 -0.22011936 0.2644575 0.37373275 0.33306298 -0.24848151
0.17873667 -0.061671037 -0.49334285 0.2852786 0.005968666 0.06743143 0.3068394 0.24137588
0.25040165 -0.032733362 0.13808666 0.14666124 0.12442568 0.07934673 -0.25740245 -0.44380477
0.3141585 -0.453804 -0.30458435 -0.44895077 -0.21392064 -0.45739454 -0.35958952 -0.5007891
-0.36069465 -0.7047167 -0.43806958 -0.39101127 -0.093377955 0.124152936 0.21057492 0.13175249
0.28963724 -0.24704531 0.32163885 0.034361478 0.3181828 0.3203274 0.33015707 0.30882594
0.038720682 0.27804422 0.2664634 0.23529261 0.29261142 0.30904067 -0.12316692 0.31000298
-0.2574961 0.2903146 0.22804132 0.09881574 0.17864774 -0.0038443606 0.16792224 -0.28562692
-0.033492338 -0.28747946 -0.36053944 -0.5334546 -0.43538147 -0.4722915 -0.32468212 -0.19101913
0.065093875 -0.2488808 0.10326599 -0.20305529 -0.25851664 -0.07081824 -0.19928429 0.12407634
-0.14719404 -0.3022614 -0.08289935 -0.16752948 -0.25400415 -0.15432622 -0.5308626 -0.1641397
0.15871501 -0.14966078 -0.12359912 -0.28481916 -0.20301014 -0.25423348 0.26948702 -0.27948484
-0.22255078 -0.23550038 -0.1354386 -0.10468795 -0.10115697 -0.049719907 -0.0078075686 0.111908734
-0.38144806 0.18189074 0.37327012 0.3824768 0.45767897 0.33528566 0.4686901 0.32990608
0.3267219 0.43315423 0.4321937 0.28928232 0.23109801 0.1349859 0.45749047 0.121009186
-0.028545234 -0.023398735 -0.7458762 -0.41529328 -0.37416974 0.42480913 -0.39669493 0.42806754
-0.30436975 0.17458726 -0.22192568 -0.13418116 -0.11172877 0.32096943 -0.07921213 -0.3482246
-0.10977247 -0.058143884 -0.119839385 -0.15689714 0.16984421 -0.08319235 0.27375624 -0.07597632
-0.3618696 -0.14011502 -0.07949663 -0.048408218 0.014276756 0.20910744 -0.1118446 -0.09741148
0.015001446 -0.048835795 -0.4484917 -0.10866075 -0.5235299 0.044282764 0.20447098 0.26433942
00000000: d4d2 abbe 0770 7e3d fc4a 593e 6ae9 ccbd
00000010: de3c 4e3e 544c 4bbe d0c5 69be c3dc ab3d
00000020: 2103 bdbe 6815 dabe b1e0 eebe bbfe 08bd
00000030: 7a1b b13d bc1f 203e cbdb 0cbf c631 503e
00000040: 7b98 8b3e 4f55 b33e bffa b23e 6e5b bbbd
00000050: 52f3 b53e 4c20 c8be ce2d a53e 7eba 803e
00000060: 21d6 9c3e a9c5 6b3e 8eeb db3d 3fb7 553e
00000070: f6e2 55bd 8499 2dbe 19f7 93be e322 f6be
00000080: 3b93 32bf a986 12bf e691 efbe bbbe f6be
00000090: 0959 453e 1105 c2be 8a9a dd3d 4294 8dbe
000000a0: 8bd1 87be 346d 65be 4626 85be 2886 96be
000000b0: bf41 f83d 4f46 86be 2a0e 80be fb13 62be
000000c0: 899e a5be dbf7 493e 75d2 02be e699 3d3e
000000d0: 3d59 a0bd 4cf0 19bd 1de9 3ebe 8d1d d53d
000000e0: 2e57 a83d 679e 113e dbe9 be3d 9c0b a93e
000000f0: 175f cf3d e46f 2d3e 01a3 123e e644 6a3e
00000100: 753b 51be a344 193e 2500 8a3d 8c0a 993d
00000110: 2b60 863d 78e6 1dbe aeaf 0f3d 8dc4 96bd
00000120: 8610 f13d 8f61 24be cf2e 263e 04ba 2abe
00000130: e370 c9be 1f15 b6be 9a8a ecbe 2d97 f3be
00000140: 7671 00bf 6643 bcbd 66e4 2cbf 6083 88be
00000150: 33c4 35bf 2b73 24bd 9d2e c0be 5761 dc3c
00000160: c44c c43d cc0f fe3d 996a 073e f039 473e
00000170: 1384 553e 5c35 723e 7a83 813e 93a7 713e
00000180: d233 283d 668f 793e 5b2d cdbd f866 61be
00000190: f966 873e e659 bf3e 3b87 aa3e f071 7ebe
000001a0: bf06 373e c59a 7cbd 6f97 fcbe 0910 923e
000001b0: cd94 c33b 7d19 8a3d 0e1a 9d3e 3d2b 773e
000001c0: a534 803e 6b13 06bd 9766 0d3e 5d2e 163e
000001d0: e4d2 fe3d 8a80 a23d 41ca 83be 613a e3be
000001e0: 62d9 a03e ff58 e8be 7bf2 9bbe e0dc e5be
000001f0: 030e 5bbe 9e2f eabe 1e1c b8be b733 00bf
00000200: f8ac b8be 5068 34bf a84a e0be a132 c8be
00000210: f13c bfbd e543 fe3d f4a0 573e 20ea 063e
00000220: 554b 943e 72f9 7cbe d9ad a43e 9fbe 0c3d
00000230: dbe8 a23e f401 a43e 590a a93e 6f1e 9e3e
00000240: 9499 1e3d d05b 8e3e e46d 883e 8cf0 703e
00000250: 2ad1 953e 943a 9e3e f03e fcbd b6b8 9e3e
00000260: 87d6 83be 1ea4 943e aa83 693e e85f ca3d
00000270: 6fef 363e abf1 7bbb cff3 2b3e b13d 92be
00000280: 432f 09bd 8230 93be a098 b8be 7b90 08bf
00000290: 52ea debe 31d0 f1be bc3c a6be 859a 43be
000002a0: f04f 853d 9cda 7ebe 1f7d d33d baed 4fbe
000002b0: 4b5c 84be 2709 91bd 2e11 4cbe bc1b fe3d
000002c0: 09ba 16be 02c2 9abe 22c7 a9bd d98c 2bbe
000002d0: d50c 82be b107 1ebe 9de6 07bf 3d14 28be
000002e0: 3086 223e ad40 19be 8921 fdbd d1d3 91be
000002f0: e4e1 4fbe e42a 82be 34fa 893e a318 8fbe
00000300: 5ae4 63be 0327 71be 6bb0 0abe a366 d6bd
00000310: 632b cfbd 1aa7 4bbd a2d6 ffbb 6830 e53d
00000320: 294d c3be 9141 3a3e 431d bf3e 00d4 c33e
00000330: e654 ea3e 90aa ab3e 26f8 ef3e 73e9 a83e
00000340: 1848 a73e 64c6 dd3e 7e48 dd3e d01c 943e
00000350: f5a4 6c3e be39 0a3e 313c ea3e aad3 f73d
00000360: b2d7 e9bc b4ae bfbc bef1 3ebf 52a1 d4be
00000370: 2d93 bfbe 9580 d93e 991b cbbe ab2b db3e
00000380: 5ad6 9bbe 01c7 323e 7c40 63be c966 09be
00000390: 0ed2 e4bd 1b56 a43e f839 a2bd 7f4a b2be
000003a0: 64d0 e0bd 4828 6ebd 5a6e f5bd a5a9 20be
000003b0: a4eb 2d3e c060 aabd c729 8c3e 7999 9bbd
000003c0: f946 b9be 507a 0fbe 21cf a2bd b247 46bd
000003d0: 0ee9 693c 4320 563e c80e e5bd ac7f c7bd
000003e0: a0c8 753c 0b08 48bd b4a0 e5be 8789 debd
000003f0: 0e06 06bf d861 353d d760 513e 7f57 873e

fc_2_Add_B f4 [101]
-3.5185802 -2.624706 -4.253584 -1.4383963 -5.718307 -1.2966814 -0.732377 -2.896611
-2.6060307 -0.012207982 0.36638936 0.6791878 -2.010088 0.40589297 -0.7957375 -0.060232356
0.28915438 0.24380606 -0.1500256 -1.1415956 -0.50161976 -3.457845 -0.56085956 -1.5669085
-0.5855413 -0.9315325 -0.85742366 -0.7633453 -0.6791194 -0.7809524 -0.7520713 -0.53789365
-0.585773 -0.23577799 -0.21689686 -0.03999448 -2.2228515 0.0097940145 0.19809583 -0.051051818
0.06914201 0.5570824 0.6829474 0.51581 0.04692241 0.64135057 0.47860375 -0.033062994
-0.5799385 0.0021408792 -1.171019 -1.9760311 -1.7279868 -1.1537081 1.1562278 -1.1207138
-1.0639502 1.4616756 -0.6400821 -1.0673137 -0.4025375 -0.34643266 -0.4409777 -0.1485291
0.254197 0.73924625 1.0800515 -1.1603509 1.472168 0.92574054 1.6770368 1.8375382
1.5649936 1.881772 -0.31649128 2.1985624 2.4919887 2.421898 2.4846754 2.5500703
2.2923303 -0.23742484 2.1169248 -1.2616557 1.7929301 0.38422275 1.7085677 1.3950181
1.1520139 -1.3068763 1.1266118 0.7707216 0.2751323 -0.19318818 -0.8235433 -1.6333243
-0.16254644 -2.5994945 -1.3352808 -0.1314049 -4.5298347
00000000: 6b30 61c0 2ffb 27c0 5c1d 88c0 5f1d b8bf
00000010: 5ffc b6c0 a8f9 a5bf 0f7d 3bbf 1362 39c0
00000020: 35c9 26c0 fd03 48bc 6397 bb3e 40df 2d3f
00000030: 48a5 00c0 34d1 cf3e 74b5 4bbf 34b6 76bd
00000040: 0b0c 943e 4ca8 793e 50a0 19be ce1f 92bf
00000050: 276a 00bf 554d 5dc0 7e94 0fbf 7590 c8bf
00000060: 09e6 15bf ea78 6ebf 1e80 5bbf 996a 43bf
00000070: c5da 2dbf 7fec 47bf bf87 40bf 66b3 09bf
00000080: 38f5 15bf c96f 71be 361a 5ebe 40d1 23bd
00000090: 3343 0ec0 1377 203c a2d9 4a3e b61b 51bd
000000a0: 539a 8d3d f49c 0e3f a4d5 2e3f 200c 043f
000000b0: b731 403d 8d2f 243f 8d0b f53e 106d 07bd
000000c0: d976 14bf fe4d 0c3b f3e3 95bf 96ee fcbf
000000d0: ac2e ddbf b5ac 93bf 46ff 933f 8d73 8fbf
000000e0: 852f 88bf 3018 bb3f 6cdc 23bf bc9d 88bf
000000f0: 6519 cebe 9f5f b1be d4c7 e1be 0318 18be
00000100: 1c26 823e 3e3f 3d3f 213f 8a3f 6186 94bf
00000110: 0070 bc3f 55fd 6c3f 24a9 d63f 7434 eb3f
00000120: b651 c83f e8dd f03f 250b a2be 3fb5 0c40
00000130: be7c 1f40 6000 1b40 ec04 1f40 5a34 2340
00000140: 8ab5 1240 7f1f 73be b27b 0740 ef7d a1bf
00000150: bc7e e53f d8b8 c43e 59b2 da3f f48f b23f
00000160: 3175 933f b947 a7bf d134 903f 034e 453f
00000170: 24de 8c3e 1fd3 45be bcd3 52bf c510 d1bf
00000180: 9372 26be 1e5e 26c0 7bea aabf 028f 06be
00000190: 68f4 90c0
